…
, vale lembrar que o nosso modelo passou apenas por um só problema de classificação binária em vez de todas as 101 classes do dataset Food 101. Dito isso, não podemos comparar diretamente essas métricas. Os resultados mostraram apenas que nosso modelo aprendeu alguma coisa. Vamos verificar a arquitetura que foi construída:\nmodel_1.summary()\n\nModel: \"sequential\"\n_________________________________________________________________\n Layer (type)                Output Shape              Param #   \n=================================================================\n conv2d (Conv2D)             (None, 222, 222, 10)      280       \n\n conv2d_1 (Conv2D)           (None, 220, 220, 10)      910       \n\n max_pooling2d (MaxPooling2D  (None, 110, 110, 10)     0  )                                                               \n\n conv2d_2 (Conv2D)           (None, 108, 108, 10)      910       \n\n conv2d_3 (Conv2D)           (None, 106, 106, 10)      910       \n\n max_pooling2d_1 (MaxPooling  (None, 53, 53, 10)       0         \n 2D)                                                             \n\n flatten (Flatten)           (None, 28090)             0         \n\n dense (Dense)               (None, 1)                 28091     \n\n=================================================================\nTotal params: 31,101\nTrainable params: 31,101\nNon-trainable params: 0\n\nO que fizemos aqui foi replicar a arquitetura exata que o site CNN Explainer utiliza para demonstrar modelos.\n\nExistem algumas novidades aqui que ainda não foram mencionadas:\n\nImageDataGenerator\nO método flow_from_directory()\nOs parâmetros bat
…
t(train_data,\n                        epochs=5,\n                        steps_per_epoch=len(train_data),\n                        validation_data=valid_data,\n                        validation_steps=len(valid_data))\n\n\nTivemos uma melhora significativa com aproximadamente 70% de precisão!\nVamos olhar a arquitetura:\nmodel_3.summary()\n\nModel: \"sequential_2\"\n_________________________________________________________________\n Layer (type)                Output Shape              Param #   \n=================================================================\n flatten_2 (Flatten)         (None, 150528)            0         \n\n dense_4 (Dense)             (None, 100)               15052900  \n\n dense_5 (Dense)             (None, 100)               10100     \n\n dense_6 (Dense)             (None, 100)               10100     \n\n dense_7 (Dense)             (None, 1)                 101       \n\n=================================================================\nTotal params: 15,073,201\nTrainable params: 15,073,201\nNon-trainable params: 0\nO número de parâmetros treináveis aumentou ainda mais. E mesmo com 500x mais (15.000.000 vs 31.000), ainda não conseguimos nos aproximar do resultado de model_1. Isso revela o poder das redes neurais convolucionais e a capacidade de aprender
…
_steps=len(test_data))\n\n\nPerceba que utilizamos um código ligeiramente diferente, para construir o model_8 em comparação com o model_1. Isso se deve as importações que fizemos antes, como de Conv2D que reduziu a quantidade de código que tivemos que escrever. Embora o código seja diferente, as arquiteturas são as mesmas:\nmodel_1.summary()\n\nModel: \"sequential\"\n_________________________________________________________________\n Layer (type)                Output Shape              Param #   \n=================================================================\n conv2d (Conv2D)             (None, 222, 222, 10)      280       \n\n conv2d_1 (Conv2D)           (None, 220, 220, 10)      910       \n\n max_pooling2d (MaxPooling2D  (None, 110, 110, 10)     0         \n )                                                               \n\n conv2d_2 (Conv2D)           (None, 108, 108, 10)      910       \n\n conv2d_3 (Conv2D)           (None, 106, 106, 10)      910       \n\n max_pooling2d_1 (MaxPooling  (None, 53, 53, 10)       0         \n 2D)                                                             \n\n flatten (Flatten)           (None, 28090)             0         \n\n dense (Dense)               (None, 1)                 28091     \n\n=================================================================\nTotal params: 31,101\nTrainable params: 31,101\nNon-trainable params: 0\nmodel_7.summary()\n\nModel: \"sequential_7\"\n_________________________________________________________________\n Layer (type)                Output Shape              Param #   \n=================================================================\n conv2d_19 (Conv2D)          (None, 222, 222, 10)      280       \n\n conv2d_20 (Conv2D)          (None, 220, 220, 10)      910       \n\n max_pooling2d_14 (MaxPoolin  (None, 110, 110, 10)     0         \n g2D)                                                            \n\n conv2d_21 (Conv2D)          (None, 108, 108, 10)      910       \n\n conv2d_22 (Conv2D)          (None, 106, 106, 10)      910       \n\n max_pooling2d_15 (MaxPoolin  (None, 53, 53, 10)       0         \n g2D)                                                            \n\n flatten_8 (Flatten)         (None, 28090)             0         \n\n dense_13 (Dense)            (None, 1)                 28091     \n\n=================================================================\nTotal params: 31,101\nTrainable params: 31,101\nNon-trainable params: 0\nVamos comparar a performance, primeiro as curvas do último modelo:\nplot_loss_curves(history_7)\n\n\n\nAgora do nosso primeiro modelo:\nplot_loss_curves(history_1)\n\n\n\nAs curvas de treinamento parecem boas, mas o desempenho do modelo no conjunto de
…
